weights.npy (npy, 5372 bytes, 1 tensors)

array f4 [3, 21, 21]
000000 c5 d5 2b 40 03 9a e2 bb 16 ba d3 3b 09 10 72 3c
       2.6849225 -0.0069153323 0.006461392 0.014774331
000010 5c 42 90 3c 34 1f 6a 3c 31 26 15 3d 1c e0 e9 3c
       0.017609768 0.014289666 0.036413375 0.028549246
000020 08 52 e5 3c 67 24 93 3c 3d f4 99 3c f9 06 d6 3c
       0.027993217 0.017961694 0.01879322 0.026126372
000030 8d 77 80 3c 88 da 84 3c ef 72 e5 3c 8e ed bf 3d
       0.015682006 0.016217485 0.028008906 0.09371482
000040 35 f5 20 3d 6d ff 24 3c 6b a5 8e 3c 6b fc fb 3c
       0.039296348 0.010070664 0.017412862 0.03076001
000050 da 8f 9f 3c 92 71 21 3d f3 68 40 40 eb 0d 75 b8
       0.019477773 0.03941495 3.0064056 -5.8425514e-05
000060 97 d1 cd b8 cb d3 22 b7 bb fe c5 b8 0e de 48 b9
       -9.814201e-05 -9.705264e-06 -9.441139e-05 -0.00019156208
000070 ab a5 05 b9 8d 80 39 b9 25 5f 43 b9 62 27 e2 b8
       -0.00012745585 -0.00017690864 -0.00018632093 -0.000107838554
000080 35 94 40 b9 f5 4f dc b8 2d 3c b7 b8 fb 58 1b b9
       -0.00018365758 -0.00010505311 -8.7373286e-05 -0.000148151
000090 8d 35 64 ba 0a 51 62 b9 11 3c 83 b8 59 b0 d9 b8
       -0.00087054895 -0.00021583229 -6.257755e-05 -0.00010380214
0000a0 31 d0 36 b9 a6 8e ed b8 3d 92 19 3d a3 f7 07 b8
       -0.0001743443 -0.00011327611 0.03749298 -3.2417138e-05
0000b0 7b e9 3e 40 a3 4e f7 38 01 0f 92 38 4a e7 50 38
       2.9830005 0.00011792525 6.964617e-05 4.980647e-05
0000c0 40 1f 30 3a 51 ac 40 3b 5a 04 b3 38 31 95 1c 39
       0.0006718524 0.0029399584 8.536196e-05 0.00014932897
0000d0 e4 c1 8f 38 be a2 ce 38 36 2c 49 38 c9 92 89 38
       6.854886e-05 9.8531586e-05 4.796331e-05 6.56001e-05
0000e0 ac 0c 4c ba d4 c6 9f 3b 08 d9 9d 38 8c 61 16 38
       -0.00077838707 0.004875997 7.5267686e-05 3.5853634e-05
0000f0 a5 a0 3b 39 96 59 c2 38 95 af a9 38 75 3c 7e 3c
       0.00017893554 9.2673276e-05 8.091253e-05 0.015517344
000100 60 4d c3 b7 14 0f 34 38 35 dd 3e 40 5a be 03 39
       -2.3281842e-05 4.2929387e-05 2.9822514 0.00012564045
000110 95 d9 eb 38 1d 6f 88 39 ac e5 3e 39 ef fe 1b 39
       0.00011246201 0.00026022727 0.00018205371 0.00014876922
000120 cb 69 3b 39 c1 e5 aa 39 1b 4c 89 3a f3 84 9c 38
       0.0001787312 0.00032596107 0.0010474952 7.4634234e-05
000130 99 d2 ed 38 5d 88 36 39 0f d2 63 3a a7 2c ca 39
       0.000113402675 0.00017407672 0.0008690664 0.0003856171
000140 f2 65 ca 39 7d 31 e7 38 6e a9 4b 39 ab 0e f8 38
       0.00038604398 0.00011024156 0.00019422706 0.00011828294
000150 6c fa 0d 3c f7 7b a1 b8 97 01 ee 38 30 0b 27 39
       0.008665662 -7.7001685e-05 0.000113490205 0.00015930529
000160 5c 7a 3e 40 27 82 29 39 91 2e c9 39 b6 45 a2 39
       2.9762182 0.00016165581 0.00038372402 0.00030950987
000170 fb e1 9e 39 0b 27 87 39 34 1b 0a 39 33 21 87 39
       0.00030304477 0.00025778296 0.0001317084 0.00025773942
000180 7d aa 3b 39 a9 8b 3c 39 59 0c 9d 39 fa c8 82 3a
       0.00017897222 0.00017981105 0.00029954573 0.0009978109
000190 2f 8b b6 39 fb 45 e1 38 c0 92 2f 39 c2 d1 99 39
       0.00034817445 0.00010741871 0.00016743969 0.00029338716
0001a0 0b 03 4b 39 23 1b ad 3b a1 89 10 b8 db 73 c5 3a
       0.00019360722 0.005282776 -3.4460452e-05 0.0015064435
0001b0 46 91 0c 39 42 33 18 39 df 06 3f 40 78 e5 f5 39
       0.00013405559 0.00014514945 2.9847944 0.0004690101
0001c0 36 7a c9 b9 e3 8e fe 38 22 5d 62 39 71 6e 23 39
       -0.00038428762 0.000121382785 0.00021587734 0.00015586034
0001d0 34 b2 c8 3b b8 fe a2 39 fd 32 02 39 6c af 50 39
       0.006124759 0.00031088828 0.00012416761 0.00019901776
0001e0 87 c9 03 3c 44 4a 93 39 4f 37 f3 38 68 8c 37 39
       0.008043653 0.00028093357 0.00011597445 0.00017504545
0001f0 b9 12 75 39 39 ac b8 39 50 7a a5 bc 96 3a c1 b8
       0.00023371995 0.0003522353 -0.020199925 -9.2138696e-05
000200 81 25 5e 39 75 dc c6 39 9c b8 cd 39 e7 57 c8 39
       0.00021185541 0.00037929756 0.00039238192 0.00038212465
000210 55 b1 3c 40 21 eb 89 3a 81 1a 32 3a 88 d7 24 3a
       2.9483235 0.0010522344 0.00067941105 0.000628822
000220 06 f8 e2 39 05 c5 20 3a dd cf d7 39 aa 58 db 39
       0.0004329087 0.0006132874 0.00041162866 0.00041836995
000230 66 f0 2c 3a 98 1d 10 bb 44 53 53 3a 94 05 81 39
       0.00065971015 -0.0021990295 0.0008061419 0.00024608953
000240 2d ec c4 39 9a 85 20 3a e4 b9 d6 39 dd 8a 87 3b
       0.00037559998 0.0006123424 0.0004095576 0.004136427
000250 79 ca 33 b7 58 03 d5 39 09 fb a5 39 18 2e 82 39
       -1.0716373e-05 0.00040629017 0.00031658288 0.00024829875
000260 e5 85 c4 3a f0 26 ce 3a 1e c2 3c 40 9e 33 ef 39
       0.0014993517 0.0015728157 2.949348 0.0004562409
000270 d3 e6 01 3a fe 5d be 39 49 e5 00 3a e4 ab 74 ba
       0.0004955355 0.00036309654 0.00049169787 -0.0009333475
000280 51 c6 d3 39 c5 d4 27 ba 5a 7c a8 3a 5a b9 2d 3a
       0.00040392813 -0.00064022496 0.0012854442 0.0006627046
000290 78 9f 4f 39 bf a6 98 39 8c e4 0c 3a 5a 8c b9 39
       0.00019800465 0.00029115935 0.00053746323 0.0003539052
0002a0 e3 c4 9c 3b ac 1a 75 b8 25 7a 14 39 cc a1 27 39
       0.004784213 -5.8437392e-05 0.00014159882 0.00015986635
0002b0 ec 1f 80 39 3d 9a 22 3a 6d 0b 06 3a 4a e2 11 3a
       0.00024437846 0.0006202793 0.0005113397 0.0005565031
0002c0 5b ea 3d 40 8c 47 2f 3b ec 6f d8 39 6b 10 12 3a
       2.967429 0.0026745526 0.0004128212 0.00055719045
0002d0 f5 ac 64 3a cf 27 6e 39 08 c1 bd 39 af 77 ac 3b
       0.00087232824 0.00022712279 0.0003619271 0.005263291
0002e0 f2 f1 90 3a e0 dd 45 39 2f da 2d 3b da f9 d8 39
       0.0011058433 0.00018870039 0.0026527753 0.00041384884
0002f0 73 96 f1 39 e1 7e ce 3d 96 2a 12 38 9c 13 07 3a
       0.00046079195 0.10082794 3.4848774e-05 0.00051527633
000300 72 b8 d6 38 d3 5a 11 39 2f 49 26 39 2b fa 40 39
       0.00010238671 0.00013862112 0.00015858257 0.00018403742
000310 15 1a 34 3a e7 31 cf 39 b1 d9 3c 40 d7 75 e3 38
       0.00068703416 0.00039519297 2.9507868 0.00010846153
000320 92 64 39 3b 1a 0a 10 b7 1e a6 d0 38 28 ca 16 39
       0.0028288704 -8.585421e-06 9.9491546e-05 0.00014380424
000330 43 cd 35 3c 44 e3 2d 3a bd 58 8a 38 f2 e7 77 3b
       0.0110963015 0.00066332915 6.5968816e-05 0.003782746
000340 b1 c9 1f 39 b8 5a 69 3a 03 ce 9e ba a5 42 12 b8
       0.00015238558 0.0008901763 -0.001211584 -3.487118e-05
000350 b2 20 e1 38 e0 1a 41 39 14 db 3c 39 35 17 23 39
       0.00010734926 0.00018415926 0.0001801069 0.00015553537
000360 5a 31 b2 39 8e 81 8f 39 ac b1 64 39 11 19 84 39
       0.00033987575 0.0002737161 0.00021809962 0.00025195678
000370 fd 4a 3e 40 b8 43 80 39 03 a7 08 b8 cd 35 86 38
       2.973327 0.00024464517 -3.258047e-05 6.399639e-05
000380 8e e4 96 39 3d cf 5b 39 4e 58 c0 39 36 cc 22 b9
       0.00028780516 0.0002096267 0.00036686886 -0.00015525598
000390 44 b6 1c 39 48 e6 8a 39 d3 a1 32 39 63 97 c2 3c
       0.00014945219 0.00026492984 0.00017035687 0.023753827
0003a0 a6 c2 5f 37 bc 6b 4c 39 fc 59 0c b9 f6 f1 93 39
       1.3337156e-05 0.0001949509 -0.00013384962 0.000282183
0003b0 00 b9 0c bb 8c 00 17 3a 65 94 f0 39 bf ba 41 3a
       -0.0021472573 0.00057602744 0.0004588693 0.0007390193
0003c0 f3 3c a1 3c 55 b2 a2 39 81 00 3d 40 3d d3 c1 39
       0.019682383 0.00031031916 2.9531558 0.00036969213
0003d0 c0 2a 9a 39 bb af ee 39 4a 3f 2c ba c0 45 34 38
       0.0002940502 0.00045525827 -0.000657071 4.2980304e-05
0003e0 2d ab 37 39 27 48 56 39 5d 92 f8 39 12 29 a2 39
       0.00017516008 0.00020435509 0.00047411295 0.00030929648
0003f0 f8 45 5d 3c 32 6d ce b7 d7 9a b4 38 0b 4a 40 39
       0.013505451 -2.4607962e-05 8.61191e-05 0.0001833813
